templates/Soil types/soil.tflite (tflite, 922796 bytes, 14 tensors)

sequential_4/conv2d_20/BiasAdd/ReadVariableOp f4 [16]
000000 4c f6 0a bd 78 8d b1 3a 6a c2 35 bc 30 ab 92 bc
       -0.033926293 0.0013546189 -0.011093715 -0.017903894
000010 33 1d 3c bc 11 4d 01 3d b5 56 04 bd d6 13 0c bc
       -0.011481571 0.031567637 -0.032309253 -0.008549651
000020 aa dd bd 3c 54 1c 81 3c bf 2f 1e bd ca eb 24 bd
       0.023176987 0.015760578 -0.038619753 -0.04026393
000030 9a e8 b7 bb 19 19 75 bc 0d bf d9 3b b1 65 71 3c
       -0.005612445 -0.014959597 0.0066450895 0.014733718

sequential_4/conv2d_21/BiasAdd/ReadVariableOp f4 [32]
000000 f7 4b 1d 3c 1e 66 61 3c f0 67 31 bb 15 ea 18 bd
       0.009600631 0.013757257 -0.0027070008 -0.037332613
000010 34 79 e7 bc a7 62 37 bd 11 19 21 bd 65 5f 82 3a
       -0.028256036 -0.044771817 -0.039330546 0.0009946643
000020 cc 40 31 bd 1a 9d e8 bc 97 3d cc 3c 27 3d 26 bd
       -0.043274686 -0.028395224 0.024931712 -0.040585663
000030 d2 98 81 bb 2b 87 52 3c 07 32 3d bc 9d 9a 8f bb
       -0.003954985 0.012849609 -0.011547572 -0.004382445
000040 62 76 c8 3c 59 51 a7 bc af 06 2d bd 9a 11 1f bc
       0.024470512 -0.020424532 -0.042242702 -0.009708786
000050 a3 7a 34 bd aa df 8a 3b 9c 5d cf bc 0c e4 f0 3b
       -0.044062268 0.0042380886 -0.025313191 0.007351404
000060 fd 20 dc bc ac d5 ef bc 8e f0 2e 3d df bf 59 3c
       -0.026871199 -0.029276691 0.04270988 0.013290375
000070 65 9a 15 bd a6 7e f2 39 02 16 9d bc c0 83 00 bd
       -0.036524195 0.00046252197 -0.019175533 -0.031375647

sequential_4/conv2d_22/BiasAdd/ReadVariableOp f4 [64]
000000 07 62 44 3c f3 71 9a bb 9e 44 00 bd 1b 86 ab 3c
       0.011986262 -0.004713291 -0.03131544 0.02093797
000010 af 0a c6 3b 58 ad c8 bc bd af 46 3c e7 e3 3a bd
       0.006043754 -0.02449672 0.01212686 -0.0456275
000020 ee c0 2b bd 58 46 15 bd aa 0c 33 bd bf fd 11 bd
       -0.04193204 -0.03644404 -0.04371325 -0.03564238
000030 ff ab 0a bc d4 69 d6 bc 45 5a 8b ba 25 26 ff bb
       -0.008463859 -0.02617351 -0.0010631761 -0.0077865296
000040 1b a5 c7 bb cc f6 0c 3d 0b f1 58 3d 41 26 17 bd
       -0.00609268 0.03441505 0.05296425 -0.036901716
000050 f0 c3 e9 bc ac 4a 07 bd 4b 82 2a bd 03 d8 a5 3b
       -0.028535813 -0.033030197 -0.041628163 0.005061151
000060 9a d8 82 bc 8b 2e 24 bd 7f 43 4f 3c 4b 41 2e 3c
       -0.015972424 -0.04008345 0.01265037 0.010635684
000070 7c a7 3d bc 7c 8b 32 bb 10 67 eb 3b e4 98 b7 3a
       -0.011575576 -0.0027243784 0.007183917 0.0014007357
000080 9b c9 bb 3c 4f cb 56 bc 96 0b 07 bd c2 06 9f bc
       0.022923281 -0.013109996 -0.032970034 -0.019412402
000090 cf 88 fa bb 1b 88 53 bc 94 06 ec bb 7e 58 ed ba
       -0.0076457034 -0.012910868 -0.0072029326 -0.0018108038
0000a0 4c ca 42 bb 2a 05 19 bc ab 81 19 bb bc 24 af ba
       -0.002972263 -0.00933961 -0.0023423235 -0.0013362388
0000b0 9b ff 36 3d 2d 43 bc bc 58 41 2c bc ba 13 21 bc
       0.044677358 -0.02298125 -0.010513626 -0.009831363
0000c0 17 64 8b bc 26 22 8f bc 9e b6 7a ba e4 fe f5 bc
       -0.0170155 -0.017472338 -0.0009563955 -0.030028768
0000d0 36 51 07 3a c2 8f ad bc e7 4c c5 3c 4d df 06 3b
       0.00051619427 -0.021186713 0.024084521 0.0020579875
0000e0 41 ea 1e 3c 11 27 c1 3c 7e 61 09 bd 4b 69 74 bc
       0.009699405 0.023578199 -0.03354024 -0.014917682
0000f0 03 d3 a9 3b a6 36 e7 bc 1e 3a 77 bc 2f cb 17 3c
       0.0051826253 -0.0282243 -0.01508954 0.009264751

sequential_4/conv2d_23/BiasAdd/ReadVariableOp f4 [64]
000000 b0 21 8a 3c 7d 7c a6 bc f0 2f d1 3c e7 4d a9 3b
       0.016861767 -0.020323033 0.025535554 0.0051667574
000010 5a 3b 50 3b 59 c8 9c 3c 8b d2 b7 3c 9b 96 67 3c
       0.0031773658 0.019138502 0.022439262 0.014135028
000020 18 14 56 3c 28 3a 4d bd 3f 36 92 bc 8b 4c 91 bc
       0.013066314 -0.05010429 -0.017848132 -0.017736694
000030 82 4b 54 bc bb 59 ba bb 07 9a fa bc 22 20 7c 39
       -0.012957456 -0.0056869662 -0.030591024 0.00024044563
000040 fc 99 ca 3c 54 20 0c bb 45 b7 9f bb 3b 29 03 3d
       0.024731629 -0.0021381574 -0.0048741424 0.032021742
000050 33 0b 01 3d 12 71 8a 3c d4 ba 9f 3c fd 7a 55 3c
       0.03150482 0.01689962 0.019498266 0.013029811
000060 7e 73 53 bc 98 3f 79 bc cb 2a 84 ba 9e fd 6d bc
       -0.012905953 -0.015212916 -0.0010083554 -0.014525799
000070 03 2b b2 bc a8 c5 62 3c 8e da 8d bc e3 47 b8 bb
       -0.021749025 0.01384107 -0.017316129 -0.005623804
000080 4c 88 6a 38 66 77 fc bc 85 57 43 bc c2 f2 19 bd
       5.5916884e-05 -0.030818652 -0.011922722 -0.037585028
000090 58 39 13 bd 8a 04 b3 3b 99 51 dc 3a 22 ca 83 3c
       -0.03594336 0.0054631876 0.0016808986 0.016087595
0000a0 b2 fc 53 3c e2 d3 48 bb b8 25 36 bd ea 1c aa bc
       0.012938665 -0.003064387 -0.044469565 -0.02076574
0000b0 40 14 64 ba 4e 66 0d bd c2 fe 50 3c c0 8f df bc
       -0.0008700527 -0.034521393 0.0127560515 -0.027290225
0000c0 32 ca 92 bc 1f 81 28 bc ba 76 13 3d 75 e0 df bc
       -0.01791868 -0.010284691 0.0360019 -0.02732871
0000d0 e3 35 41 bc e5 0b c2 bc 67 c6 b8 bc d5 ed 8d bc
       -0.011792633 -0.023687312 -0.022555543 -0.017325321
0000e0 88 58 4e bc 4f 2f 98 ba 33 57 ad bc 50 42 c7 bb
       -0.01259435 -0.0011610779 -0.021159744 -0.006080903
0000f0 a7 4f 36 3d f4 42 81 bc 99 0d 72 bc 33 ca 3c 3d
       0.044509556 -0.015778996 -0.01477375 0.04609127

sequential_4/conv2d_24/BiasAdd/ReadVariableOp f4 [64]
000000 74 64 08 3c d9 7e 3c bc a2 4f bb 3a 0e d3 b8 3c
       0.008324731 -0.011504852 0.00142907 0.022561576
000010 b5 1f 2e 3d ea d7 9d bc 9d 8e 90 bc 32 73 e1 bc
       0.042510707 -0.019267995 -0.017646128 -0.02752075
000020 18 3b 09 bd 09 bc 2c bc 10 e6 c9 3c 39 f6 a0 3c
       -0.03350362 -0.010542878 0.024645835 0.019648658
000030 5c 04 df bc 3c 0a 1a 3d 95 7b 76 bc ef 18 ba bc
       -0.027223758 0.037607417 -0.015044113 -0.022716967
000040 82 e2 4e 3a 5b e1 ba 3c 40 60 d3 ba f3 6b 80 3c
       0.00078920287 0.022812536 -0.0016126707 0.015676474
000050 04 63 4e 39 38 bb 37 3d 12 ac 29 3c 99 d5 cd bc
       0.00019682577 0.04485628 0.010355966 -0.025126265
000060 93 b7 25 bc 23 86 7f 3c 34 2d 0d 3c 7f 08 39 3d
       -0.010114568 0.0155959455 0.008616734 0.045174118
000070 e4 18 98 ba b3 1e 50 bb 7c 5e ae 3c f8 1d e0 bc
       -0.0011604098 -0.003175658 0.021285288 -0.02735804
000080 2c 3a b7 bc 64 a3 21 bc f1 32 26 3c 62 fb 4a bb
       -0.022366606 -0.0098656155 0.010143981 -0.003097259
000090 2a e3 17 3d ce ff 29 bc 27 0c 50 3c 7f fb ba 3c
       0.037081875 -0.01037593 0.01269821 0.022825
0000a0 35 35 d4 bc 48 55 c8 bc 4d ed 4a bc 8c ca 27 3d
       -0.025904277 -0.024454728 -0.0123856785 0.040964648
0000b0 f7 e8 20 bd 6d 0a 85 bc 8d 73 de 3c 35 db 47 bc
       -0.039284673 -0.016240323 0.027154708 -0.012198259
0000c0 55 85 32 bc f9 a7 a6 bc ab 2e 71 3d 16 da ea 3a
       -0.010896047 -0.020343767 0.058882397 0.0017917778
0000d0 d7 8f b0 3b af af d6 bc f6 0a e3 3c 0c 25 d6 3c
       0.005388241 -0.02620682 0.027715188 0.026140712
0000e0 b3 0b 16 bd 0e 6b 2a bd 86 2a f9 bc d8 80 15 bc
       -0.03663225 -0.041606 -0.030415785 -0.009124957
0000f0 80 df e7 bc 6e 85 0c 3b d1 c5 26 3c 22 da fb 3b
       -0.028304815 0.0021441835 0.010178999 0.0076859156

sequential_4/conv2d_20/Conv2D f4 [16, 3, 3, 3]
000000 11 6f 60 3d c4 2c 40 bd 15 d9 a3 bd e3 f8 cf bd
       0.05479342 -0.04691769 -0.080003895 -0.10154893
000010 21 42 1d be 6d 7a 2c be 64 fd e4 bd 89 30 c8 3d
       -0.15357257 -0.16843577 -0.11181143 0.09774882
000020 9f b0 a6 bd a8 06 0e 3e e9 b1 04 bd 10 aa c7 3d
       -0.081391566 0.13869727 -0.03239623 0.09749234
000030 c9 81 80 3d 7d c0 e5 3d 80 c3 4c 3c eb 60 e4 3d
       0.062747546 0.11218355 0.012497783 0.11151298
000040 3e 06 f9 3d 49 10 1e 3e 06 83 cd bd 80 07 bd bb
       0.12159394 0.154359 -0.10034756 -0.0057687163
000050 5b ec 06 bb e7 08 be bd b7 84 f8 3c 83 02 0e 3e
       -0.0020587656 -0.09279042 0.03033672 0.13868146
000060 89 a6 2d be f8 42 d2 bd ed 07 30 3d 86 11 2c 3e
       -0.1695806 -0.102666795 0.04297631 0.1680356
000070 90 76 b5 bd db c1 b5 bd 13 15 62 3d 6a 47 43 bd
       -0.088605046 -0.088748656 0.05519588 -0.047675528
000080 ba 79 a5 3d 59 de 91 bd 16 fd 83 bd 27 3e 5a bc
       0.08079858 -0.071224876 -0.06444757 -0.013320482
000090 fe ba d9 bd 47 4f 36 3e 90 a9 3a bd cc 66 11 be
       -0.10631369 0.1780368 -0.045571864 -0.1419937
0000a0 bd e9 18 be d5 ae 21 be 85 09 31 be b9 bb b6 3d
       -0.14932914 -0.1578935 -0.17288788 0.08922524
0000b0 83 f3 b8 3d 80 bb 0d be c5 6a 55 bd 4b f0 95 3b
       0.09030821 -0.13841057 -0.052103776 0.0045757643
0000c0 1d 4c 23 3d 5d d6 c7 3d f8 9e 15 3e 61 c8 51 bc
       0.03986751 0.097576834 0.14611423 -0.012804122
0000d0 1c 73 ee 3d 75 08 06 3e d9 22 eb 3c 11 67 d2 3c
       0.11643049 0.13089164 0.02870314 0.025683912
0000e0 57 27 4c bd d0 05 e0 3c 0e cb d0 3d ae ea 38 bd
       -0.049842205 0.027346522 0.101949796 -0.045145683
0000f0 50 87 f7 3d 39 0f 05 bd 62 11 ff 3d f7 03 a0 3d
       0.12086356 -0.03248522 0.124544874 0.07813256
000100 b6 79 8a bd c2 be 39 bc 03 5e c9 3d b4 d0 41 be
       -0.06761496 -0.011336984 0.098323844 -0.1892727
000110 2e bf 01 be 31 e2 1b be 28 e1 20 3d 74 4f 38 3d
       -0.12670586 -0.15223004 0.039277226 0.044997647
000120 23 94 b5 3d 85 98 43 be 6c e9 8f 3d 68 ea 95 3b
       0.088661455 -0.1910115 0.070269436 0.0045750625
000130 10 11 86 bd 7f 9c d7 3d 62 83 55 3d 8d 1a 9d bc
       -0.06546223 0.10527896 0.05212725 -0.0191777
000140 96 8f da bc e7 9d 6f 3c b7 03 fc bd d0 86 fa 3d
       -0.026679795 0.014625049 -0.12305396 0.12232745
000150 f5 b2 ad bd 7e 6b c8 3c 2a b9 c8 3d 58 df 9c bd
       -0.08481399 0.024465319 0.09800942 -0.07659787
000160 d0 8d 1c be c0 ef c0 3d 9e 1a 39 bd f5 82 29 3d
       -0.15288472 0.09420729 -0.0451914 0.041384656
000170 0c f4 bc 3c 20 70 f0 3d df 45 85 bd 5d 82 37 3d
       0.02306559 0.11740136 -0.065074675 0.04480206
000180 2f e6 e6 bd f9 2b 86 3c e1 b6 8e bb bd dc cc bd
       -0.11274373 0.01637839 -0.004355297 -0.1000304
000190 2d bb 06 3d 87 06 42 3d fe fb 88 3d ce 9f 34 3d
       0.03289335 0.047369506 0.06688689 0.044097714
0001a0 14 7d 3a 3e 1b cf 0b bd 91 78 01 3e 78 e4 8f bd
       0.18211776 -0.034133058 0.12643649 -0.07025999
0001b0 79 c9 c9 bd 95 9a f2 bd ca 6f 1f bc db f4 01 3d
       -0.09852881 -0.118458904 -0.009731242 0.031727653
0001c0 c0 66 fe 3c 76 61 f6 3c b1 0f a1 3d 6d 7c b6 3d
       0.031054854 0.03007577 0.07864321 0.08910451
0001d0 e2 14 61 3c 73 bc f3 3c 42 6b 1b bd 47 f9 d7 bb
       0.013737889 0.029752946 -0.037944086 -0.0065909955
0001e0 8e 4e 16 be 3d 27 4c 3e 4c 20 0b 3e d4 64 a1 bc
       -0.14678404 0.19936843 0.13586539 -0.019701399
0001f0 c5 97 2b 3c 36 6b 33 3e 23 1f c0 bd d4 45 86 bd
       0.010473196 0.17521366 -0.09380939 -0.065562874
000200 80 fb 18 bd 6f 09 62 bc 80 90 ba bd 05 76 17 be
       -0.037349224 -0.013796194 -0.091095924 -0.14791115
000210 0a 55 f6 bd 1c e1 c1 3d 79 98 73 bc f3 09 df 3c
       -0.12027939 0.09466764 -0.014867895 0.027226424
000220 30 dc 18 3e 6d 11 45 bd 2a f5 71 3c 55 21 13 be
       0.14927745 -0.04811232 0.014767924 -0.14368184
000230 f1 d5 a4 3c 67 50 84 3d 10 72 3d 3c 4c 38 8b bd
       0.020121546 0.06460648 0.011562839 -0.06797847
000240 81 0c 06 be 56 a8 76 bd 04 3b b9 3d 21 54 0a be
       -0.13090707 -0.06021913 0.090444595 -0.13508655
000250 38 11 26 3e 53 5c 11 3e 0a 88 58 3c b7 3e af 3c
       0.16217506 0.14195375 0.013216028 0.02139221
000260 2c cc 98 3d 3b 1c 1c be 94 54 5f 3d 97 bf 9d bd
       0.07460818 -0.15245144 0.05452402 -0.077025585
000270 65 3a 0a be 5f 25 9d 3d fc d0 1b 3d cd 75 33 bc
       -0.13498838 0.076731436 0.0380411 -0.010953379
000280 ad 69 6a bc 16 dd ae 3c 69 45 66 3c f9 89 5d bd
       -0.014307422 0.021345656 0.014054635 -0.05408666
000290 7f 99 d8 3c b4 5c 8e 3d b5 a7 ab bd 12 29 97 3d
       0.02644038 0.069512755 -0.08381597 0.073808804
0002a0 e7 21 e5 bd 76 28 ce bc 65 7d 2c 3d 32 b0 e5 bd
       -0.11188107 -0.025165778 0.042111773 -0.11215247
0002b0 2a a3 16 3d 7e e6 0e be 32 fc 41 3e 4c 05 87 bc
       0.0367767 -0.13955113 0.18943861 -0.016482018
0002c0 66 e0 7a 3d da 4a b9 bd 5b db 3c be 59 15 ba 3d
       0.06124916 -0.0904748 -0.18443052 0.09086103
0002d0 b4 f4 24 3e 16 4b a7 3d 17 b6 a8 3d 3b e4 dd 3d
       0.16108972 0.081686184 0.08237856 0.10834547
0002e0 d9 76 ef 3c 7c 65 0b be eb 37 f8 3d 2e d6 f3 3d
       0.029231476 -0.13612932 0.121200405 0.11906086
0002f0 7c 61 03 3d 2f 8e 8c bd 41 0a cc bc 7f 9e 58 bc
       0.03207539 -0.06863057 -0.024907233 -0.013221382
000300 7a 2f df bc a9 e5 b6 bc 3b b5 8d 3c 33 1b aa bd
       -0.027244318 -0.022326307 0.017298331 -0.08305969
000310 a3 b4 02 3d 6b 0b 52 bd ff 6f 03 be f6 21 f4 bc
       0.03191055 -0.05128042 -0.12835692 -0.02980135
000320 d9 24 05 3d cb d2 b3 3d e6 7f 50 bd 91 f1 a2 3b
       0.032505844 0.0878044 -0.050903223 0.0049726446
000330 8b 9c d0 3d 06 1b 8b 3b 68 94 b7 bd 78 24 bf ba
       0.10186108 0.004245165 -0.08963853 -0.0014583012
000340 67 87 89 3d 3c ab 95 bd b3 e4 00 3e 46 9e f9 bd
       0.06715279 -0.07308051 0.12587242 -0.121883914
000350 29 7d 1a bd 69 d0 fb bd a7 fd ff bd 3e df a6 bd
       -0.03771702 -0.122956105 -0.12499552 -0.08148049
000360 f2 76 ee bb 32 50 ed bb 0d 77 b0 bb 0f 92 36 be
       -0.007277363 -0.007242226 -0.0053852857 -0.17829154
000370 bf 49 cf bc a7 8c fb 3d a5 94 ee 3d 22 d7 0a 3e
       -0.02530372 0.12282687 0.116494454 0.13558629
000380 a8 b5 4a 3d b7 f1 08 be 85 7a da 3d e1 d4 e1 3b
       0.049489647 -0.13373457 0.106679 0.006891832
000390 6c 95 0a be 46 6c e2 3c b9 22 d2 bd 64 ef 69 bd
       -0.13533562 0.02763952 -0.10260529 -0.057113066
0003a0 83 d6 a9 bd 4a 48 eb 3d 9e 1e 26 3e 11 77 0f be
       -0.08292868 0.114883974 0.16222617 -0.14010264
0003b0 fa 68 21 3d ac c1 04 be 93 2f d0 3d 3e aa 11 be
       0.039406754 -0.12964505 0.10165324 -0.14225098
0003c0 d5 11 13 3e e0 ab a9 bd 0d 36 8a bb 76 16 99 3d
       0.14362271 -0.08284736 -0.004217869 0.07474987
0003d0 3a 9b f7 bd 22 0e e0 bd a9 2a 48 bd 92 c3 16 be
       -0.12090154 -0.109401956 -0.04886881 -0.14723042
0003e0 33 bd 06 3b 04 98 62 bc 05 da c0 3d 82 59 ad 3d
       0.002055955 -0.013830189 0.09416584 0.08464338
0003f0 bb 28 20 be 23 ac 3f 3e 68 40 fa 3d 6d 39 9c bd
       -0.15640537 0.18718009 0.12219316 -0.076281406

sequential_4/conv2d_21/Conv2D f4 [32, 3, 3, 16]
000000 19 41 56 bd 72 85 8f bd 5c bb 1e bd 23 db b0 3d
       -0.052308176 -0.070078745 -0.0387529 0.08635547
000010 88 26 69 bb df c4 1d 3d 76 4a 9e 3c ac 21 e2 bd
       -0.0035575945 0.03851783 0.019322615 -0.11041579
000020 50 f2 45 bd d1 48 0a bc f6 94 f4 bc e2 b5 03 be
       -0.04832679 -0.008440212 -0.029856186 -0.12862352
000030 95 c7 8d bd e7 80 87 bd a9 e4 6d bd 1b 0b 29 3b
       -0.06922833 -0.06616383 -0.058079395 0.0025793973
000040 11 e9 85 3d 3c 92 17 be 75 99 8a bd bc ee f8 bd
       0.065385945 -0.14801878 -0.06767551 -0.1215491
000050 dd 67 c2 bb cc e3 10 be 4e f3 8f 3d e2 23 26 bd
       -0.0059327916 -0.14149398 0.070288286 -0.040561564
000060 13 7c 4b 3d 80 31 18 be 11 b5 03 3d 38 94 b4 bd
       0.049678873 -0.14862633 0.0321551 -0.08817333
000070 fc a7 95 bd 8d f5 89 3d da f9 16 3b 1c 67 b7 3d
       -0.07307431 0.06736288 0.0023037107 0.089552134
000080 41 53 e8 bc a5 77 80 3c 99 51 82 bd 1b 45 3f bd
       -0.028360011 0.015682051 -0.0636322 -0.046696763
000090 00 06 57 bd d8 97 e3 bc 92 3e be bd d8 e0 64 bd
       -0.052495956 -0.027782366 -0.09289278 -0.05587849
0000a0 4c 7f 98 3c 6a 99 16 bc 0b d4 4e bb e0 03 05 be
       0.018615387 -0.00919185 -0.0031559493 -0.1298976
0000b0 f2 13 11 be 01 70 3e 3d da 3b a7 3d c0 77 f3 bc
       -0.14167765 0.046493534 0.08165713 -0.029720187
0000c0 f7 f2 08 bd 94 60 20 be 81 ca b5 bc 2e 43 eb bb
       -0.033434834 -0.15661842 -0.022191288 -0.0071796393
0000d0 a9 c0 23 3d 3f 49 89 bd 4b 51 fc 3d 54 b5 18 bd
       0.039978657 -0.06703424 0.12320193 -0.037282303
0000e0 f8 34 5c bc 44 98 a4 bd bd 6b f1 bd fc 58 23 3d
       -0.013440363 -0.08036855 -0.117881276 0.039879784
0000f0 72 81 af bd c8 8a dc 3d d1 f6 6b 3d 6b ae e2 bd
       -0.085696116 0.10768658 0.05760843 -0.11068424
000100 60 98 c4 bd f1 6b 0c be 09 d1 7b 3d 24 97 87 bd
       -0.09599376 -0.13713051 0.06147865 -0.06620625
000110 80 a0 ab bd 7c f9 f1 3c 56 c2 d8 3d 9f 54 c8 3d
       -0.08380222 0.029537909 0.10583942 0.09781765
000120 6e 40 84 bd 75 63 ad 3c df 29 c4 bd 4a a2 88 bd
       -0.064576015 0.021165589 -0.09578299 -0.06671579
000130 40 a7 57 3d 36 c1 43 3d bf 28 f4 3c 60 30 ca bd
       0.052649736 0.047791682 0.029804586 -0.09872508
000140 4b 68 e5 3c 6d bb cd bd ff 45 ff 3d be a5 df bd
       0.028003832 -0.10045514 0.124645226 -0.10920285
000150 9b cd 7f 3d 99 4d ab bc 5c be bf bd 37 29 df bd
       0.06245194 -0.020911025 -0.0936248 -0.10896533
000160 c2 a4 0d bd 00 45 08 3d 77 8a d8 bd 9b 25 be 3d
       -0.034580953 0.03326893 -0.10573285 0.092845164
000170 fd 3c e5 bc 07 a4 8c 3c 02 2e 0f bd 53 ad 3d bc
       -0.027983183 0.017168058 -0.034955986 -0.011576968
000180 aa 5f 67 3d c2 a3 01 be 55 2c dd 3b 27 30 82 bd
       0.056487717 -0.12660125 0.0067496696 -0.063568406
000190 e7 47 9a bd 1f 0f b0 3d 0e 58 26 bd a1 79 d7 bd
       -0.075332455 0.08596634 -0.04061132 -0.10521246
0001a0 51 73 17 bd bf 26 09 bd 1a b3 a5 ba 2e eb f6 bc
       -0.03697521 -0.033484217 -0.0012641877 -0.03014144
0001b0 77 37 96 3d 27 f3 a5 bc 3e d3 cf 3d 0d 2c d7 3d
       0.07334798 -0.020257546 0.10147713 0.10506449
0001c0 c1 54 c0 bd a5 0d 1f bd fa d1 9d 3d 7d ef 86 3c
       -0.093911655 -0.03883137 0.077060655 0.016471619
0001d0 5b 8d a7 bd d2 99 6d bd 6d 8e 2e bc b5 47 c2 3c
       -0.08181258 -0.058008023 -0.010654074 0.023715833
0001e0 71 4d 92 3d 99 3b 21 3d 03 40 ed 3d 0e 55 ae bd
       0.07143677 0.039363477 0.11584475 -0.08512317
0001f0 78 94 c0 bd b4 4d b8 bc dd d0 6d bd 0d 3a 58 bd
       -0.09403318 -0.02249799 -0.058060516 -0.052789737
000200 91 90 9e bd 4d a2 1e 3d bf da 87 3d cd f1 0f bd
       -0.077424176 0.038729 0.066335194 -0.03514271
000210 c4 6d 5d 3c 7b 90 c0 bd 11 4d e1 3c 61 62 b7 3d
       0.01351494 -0.094025575 0.027502568 0.08954311
000220 2c a4 01 be 73 bd 9a bc 55 de e5 bd e8 a9 00 bd
       -0.12660283 -0.018889165 -0.11224047 -0.031412035
000230 c3 a9 ba bd ca 3e 93 bd e6 30 49 3c 3a cb b3 3d
       -0.09114411 -0.071897104 0.012279725 0.08778997
000240 ba 0c ed bd 01 ce cd 3c 5c 73 dd 3c 7e 5c 56 bd
       -0.11574693 0.025122644 0.027032547 -0.0523343
000250 7d d0 00 bd e4 0f 90 bc 56 af df 3d f0 68 c6 bd
       -0.03144883 -0.017585702 0.109221146 -0.09687984
000260 90 74 51 bd 5e 70 6c 3d ee 1a 10 bd f1 f4 ed bd
       -0.051136553 0.05772435 -0.035181932 -0.116189845
000270 01 1a b6 bd 29 a1 35 3c d6 6c 56 3d 76 14 d8 bd
       -0.088916786 0.011085787 0.052349888 -0.105507776
000280 f9 48 0a be f2 b1 44 bd 06 c6 8a 3b 9c e7 2a 3d
       -0.135044 -0.048021264 0.004235032 0.041724786
000290 e2 e4 b3 3c 2d b7 96 bc fc b9 e8 3d 5c 51 78 bd
       0.021959726 -0.018397892 0.11363599 -0.060624465
0002a0 e8 12 ba bc d3 57 a1 bd c2 fe 35 bd 5f 24 71 bd
       -0.022714093 -0.07878079 -0.04443241 -0.058872577
0002b0 6e c5 80 3d 24 8d 6f 3d 31 22 89 3d 60 42 53 3c
       0.06287657 0.05848421 0.066959746 0.012894243
0002c0 22 fe ff bd 1d a4 5c 3c a9 f6 5c 3d 31 0a 0a be
       -0.12499644 0.013466862 0.05394617 -0.1348045
0002d0 34 29 dd bd 17 a8 13 be b8 51 33 3d 75 37 32 3c
       -0.107988745 -0.1441959 0.043779105 0.01087748
0002e0 0d db 9c bc 37 9d e8 bd 3d e5 ce bd 9c aa d9 bd
       -0.01914742 -0.11358111 -0.101023175 -0.10628244
0002f0 a6 dc ad 3d 1c 7b bc bc 65 26 5c 3d 1d 8d b5 bd
       0.08489351 -0.023007922 0.053747553 -0.08864806
000300 29 81 04 bd df bb 18 be 7d bb 9c 3d 14 5c 15 be
       -0.03234974 -0.14915417 0.07652948 -0.14585906
000310 2b ec 99 3d 84 ee 8e bd c8 6f da bd c9 7b e4 bd
       0.075157486 -0.06979087 -0.10665852 -0.11156423
000320 ce 79 56 bd 2c 81 fb bd ca 34 ae bd 8e 45 28 3d
       -0.052362256 -0.12280497 -0.085061625 0.041081958
000330 8d ef aa bd 15 7b e3 3b 60 f7 a9 3d 97 60 ac 3d
       -0.08346472 0.0069421628 0.08299136 0.084168606
000340 10 7f 93 bd 1f 60 62 3d ba 54 96 bd e7 2c 98 3d
       -0.072019696 0.05526745 -0.07340379 0.074304394
000350 69 60 1b be 35 8b 91 3d a4 d4 ad bd 98 4c b8 bd
       -0.15173496 0.0710663 -0.084878236 -0.08998984
000360 25 00 89 3d 38 0f 2a bb e9 7e 2f 3d 72 4d f0 bd
       0.06689481 -0.0025949012 0.04284564 -0.117335215
000370 ca 83 07 be 37 8c a6 3d ad 9e e8 bd 84 77 48 bd
       -0.13233867 0.081322126 -0.1135839 -0.048942104
000380 14 1e 55 3d a6 d9 11 be 2d c7 aa bd ef fa bc 3b
       0.052030638 -0.14243183 -0.08338771 0.0057672183
000390 6c 91 40 3d db 77 de bd 8e 5f 65 3d a8 1b 97 3d
       0.047013685 -0.10862704 0.05599933 0.07378322
0003a0 a0 da 85 bd 42 6e cf bd 8d 1f c3 3c 2f 23 11 be
       -0.0653584 -0.10128452 0.023818756 -0.14173578
0003b0 fc 33 27 3d 00 29 db bd a6 bf 8a bd 1b 6d 03 3d
       0.04082106 -0.107011795 -0.06774835 0.032086473
0003c0 4b 99 2c 3d 3d 35 e5 bd 7b d5 1a bd 1c aa 9f bd
       0.04213838 -0.11191795 -0.037801247 -0.07796118
0003d0 45 b4 19 3d 8a 92 f9 bd 1a 2b ec bb 5b 51 bb bd
       0.037525434 -0.12186153 -0.0072072865 -0.09146377
0003e0 cf b9 32 3c b1 cf 17 bc 05 8c 81 3d 8c ed e2 bd
       0.010908558 -0.009265826 0.06325535 -0.11080465
0003f0 ad b3 0b 3d 8c bf 72 bd 05 7a ff bc ed fb 52 3d
       0.0341069 -0.059264705 -0.031186113 0.051509786

sequential_4/conv2d_22/Conv2D f4 [64, 3, 3, 32]
000000 de 45 62 bd 47 e2 4b bd d0 30 98 3c b2 98 46 bd
       -0.05524241 -0.04977634 0.018577963 -0.048485465
000010 83 d4 7c bc 29 48 62 bd 93 1a 89 bd 8b a6 73 3c
       -0.015431526 -0.0552446 -0.06694522 0.01487125
000020 1c c5 76 bd e9 b1 3e 3d 90 96 0b bd 13 91 0c 3d
       -0.060246572 0.046556387 -0.034079134 0.03431804
000030 a0 5b db 3c 0c 98 d8 3c 5d 5b 16 bc 35 ba 04 3d
       0.026777089 0.02643969 -0.009177056 0.032404143
000040 94 3f 9c bb 8b 39 cc 3b 2f e3 b7 3c 6f 09 e9 bc
       -0.0047683213 0.0062324456 0.022447197 -0.028446881
000050 31 19 09 bc 85 a6 a0 3d d2 79 a4 bd 86 54 89 3d
       -0.0083678225 0.07844261 -0.08031048 0.06705575
000060 80 ff 98 bd 65 3b 98 bc 66 88 76 3d 1a 9f 8d 3d
       -0.07470608 -0.018583009 0.060188673 0.06915112
000070 f8 4b 26 3d 69 53 a6 bd a7 81 bf bd ba 3f 98 bd
       0.040599793 -0.08121378 -0.09350901 -0.0743403
000080 38 bc 89 3d 70 11 57 3a 5f 2e fe bc 37 bb be ba
       0.06725353 0.00082041975 -0.03102797 -0.0014551644
000090 26 7e 8a bc bf fb a4 bd 48 bf 83 bd eb 26 52 bb
       -0.016905855 -0.08055829 -0.064329684 -0.0032066654
0000a0 d0 cf bc bc 7b 5a 6e 3d 4d c4 96 3c e9 3a 76 bd
       -0.023048311 0.058191758 0.01840415 -0.060114775
0000b0 2a 35 9c bd 6b 48 27 bd 1c 26 22 bc 93 f8 8b 3d
       -0.07627328 -0.040840548 -0.009896781 0.06834521
0000c0 89 f9 01 3d 60 57 65 bd a5 f2 99 bc 68 c4 81 39
       0.031732116 -0.05599153 -0.01879246 0.0002475113
0000d0 38 30 8a bc 55 04 d6 bc 37 dc aa bd d6 cd f1 bc
       -0.016868696 -0.026125113 -0.08342784 -0.029517096
0000e0 b2 a3 4d 3c cb da 97 bd d9 4d 89 bc a5 15 b1 bd
       0.012551235 -0.07414778 -0.016760753 -0.086467065
0000f0 43 e2 b5 bc 98 14 ed bb 7d 41 e5 bd 44 2a a9 3c
       -0.022202617 -0.007235121 -0.111941315 0.020650037
000100 57 1c 2c 3c cc 21 7d bd 73 59 af 3c ec 5e f9 bc
       0.010504804 -0.06179981 0.021404957 -0.03044077
000110 c7 7c 97 bc 0e cc 1d 3d b1 3c a0 bd 4d 38 d2 3c
       -0.018492116 0.03852468 -0.07824076 0.025661612
000120 2e dd b0 3c b9 10 03 3d e5 8b 95 3d 62 65 b1 bd
       0.021589842 0.03199837 0.073020734 -0.08661915
000130 d7 a6 b4 bc e1 dc 08 bd 4b 80 27 bd 49 55 30 bc
       -0.022052212 -0.03341377 -0.040893834 -0.010762521
000140 ec 6a 40 3d 3d 48 6a bd 7d 29 5f 3d 03 3f 65 3d
       0.04697697 -0.057197798 0.054482926 0.055968296
000150 8d 49 8b bc 0b 0a 5c 3d 57 33 47 3d 4b c8 a1 3c
       -0.017002845 0.053720515 0.048632946 0.019748827
000160 06 aa 4f 3c d8 de c8 bd 62 8c 0f 3d 7e 20 6f bd
       0.012674814 -0.09808129 0.03504599 -0.058380596
000170 09 6d 98 bd 63 ad 8a b9 e2 ec 0d 3d bd c0 7a bd
       -0.07442672 -0.00026450594 0.034649737 -0.061218966
000180 b7 b3 6c bd f3 b9 80 bb a1 b5 ce 3c 64 6e 2c 3d
       -0.057788577 -0.003928417 0.025233092 0.042097464
000190 95 6c 67 bc d0 00 7b bd 18 85 66 3d 09 76 81 bd
       -0.014125009 -0.06128007 0.05627927 -0.063213415
0001a0 4d 07 71 bd 4c a9 79 3d 44 7a 80 bc 20 9b a7 3c
       -0.058844853 0.06095247 -0.0156833 0.020459712
0001b0 fa 6e 7c bc 83 21 b9 bc 57 1d 6e bc c3 72 c5 bc
       -0.015407318 -0.022598987 -0.014533362 -0.024102574
0001c0 04 c4 a3 3d 94 f0 10 bd 24 d6 77 bd c3 06 11 bd
       0.079963714 -0.035385683 -0.060506955 -0.03540684
0001d0 73 1d 06 bd a1 01 66 3c 51 4a a0 bd 97 1d 66 bd
       -0.03274293 0.014038474 -0.07826675 -0.056180563
0001e0 b5 2d 3b bc 89 87 0b bd 6a a5 48 3c ab 25 96 bb
       -0.011424472 -0.034064803 0.012246469 -0.004582127
0001f0 5d b0 7b bd 58 e6 fe 3c 66 59 b8 bc e9 04 35 bd
       -0.06144749 0.031115696 -0.022503566 -0.044194136
000200 fd a7 64 bd 67 0d 50 3d df ef 88 bd 01 cd fe bc
       -0.05582427 0.05079403 -0.06686377 -0.031103613
000210 0a 14 7d 3d b5 74 5e bd 6f ae 28 3c 82 bc 7c bc
       0.06178669 -0.05431052 0.010295494 -0.015425803
000220 89 22 8b bd 16 06 4c 3d 85 00 79 bd e7 fc 02 bd
       -0.067936964 0.04981049 -0.06079151 -0.031979468
000230 8e 9e ab bd 15 99 f1 bb f5 2d 41 3d f4 f2 36 3d
       -0.08379851 -0.007372985 0.04716297 0.044665292
000240 ad 48 fb 3c 98 aa 63 3d 58 c9 28 bc 4d 3b 68 3d
       0.030674303 0.055582613 -0.01030191 0.05669718
000250 3f 31 87 bc 00 40 b9 3d a7 11 41 3d ba a3 ce bc
       -0.016502975 0.0904541 0.047135975 -0.025224555
000260 2e 5d 83 3d 2f 87 89 bd c3 11 48 bc 8c a4 ab bd
       0.06414257 -0.06715237 -0.012211266 -0.08380994
000270 21 8e 8b 3c c0 06 3d 3d 15 fb 0f bd 05 9f bb bd
       0.017035546 0.046149015 -0.03515156 -0.0916119
000280 dc 00 26 3d 42 a7 47 3b 12 b9 04 bd 6a 42 09 3d
       0.040528163 0.0030464684 -0.03240306 0.033510603
000290 b8 f0 57 bd 01 5a 02 bd f9 fb 53 38 70 aa 77 bd
       -0.0527198 -0.031824116 5.0540988e-05 -0.060465276
0002a0 a8 08 83 3d 13 c4 a3 bc 50 18 b2 3b 17 a4 07 bd
       0.063981354 -0.019990956 0.005435027 -0.033115473
0002b0 60 11 89 bd 4c 44 84 3c 2c 69 a8 3c 30 81 4d bd
       -0.06692767 0.016145848 0.020557962 -0.05017203
0002c0 db 51 87 bb 90 98 43 bd 4a e9 66 ba 4e 9d 2c bc
       -0.004129631 -0.047752917 -0.00088085665 -0.010535551
0002d0 a8 31 2a 39 b5 f6 9c bd 0f 56 0c bb dd 98 84 bd
       0.00016230962 -0.07664243 -0.00214136 -0.06474469
0002e0 96 5b 19 bd 40 31 97 bd a1 6b 1e 3c 74 f4 a1 3c
       -0.03744086 -0.073824406 0.009669215 0.019769885
0002f0 7f 40 2c 3c c6 23 9f bd 5e 76 60 bd a3 26 6e 3d
       0.010513424 -0.07770495 -0.054800384 0.058142316
000300 69 bd 66 3d c3 08 ad 3d 29 ca 8e bd f2 1a e0 3c
       0.05633298 0.08448937 -0.06972153 0.027356599
000310 f4 6a 2b bd 53 5e 89 bc 11 2b 72 bd 1a 4f 22 bd
       -0.041850045 -0.01676861 -0.059123103 -0.03962622
000320 8f 0e 29 bd ad 72 30 3c 62 36 ea 3a 04 e7 ff 3c
       -0.04127365 0.010769528 0.001786899 0.031238087
000330 16 26 59 3d 6e f0 b5 3c d2 f3 18 3d ba 2b 2a 3d
       0.053014837 0.022209372 0.0373419 0.041545607
000340 87 ea 09 bd dc e1 1d bd df 9f 16 3c 49 76 73 bd
       -0.03367093 -0.038545474 0.00919339 -0.059438977
000350 b0 81 12 3d bf fc 9c 3d 3a ed 82 3c 80 53 8c 3d
       0.03576821 0.07665395 0.015982259 0.06851864
000360 e7 c6 c8 bb 24 22 79 bc cc ae 7e bd bb 04 dc 3c
       -0.0061272266 -0.015205894 -0.062178418 0.026857724
000370 27 b5 58 3d 2c 16 55 3d d8 34 5f bd 93 c4 c6 bd
       0.052907135 0.052023098 -0.054493755 -0.09705462
000380 29 3a 91 3c e1 a1 2a bc 96 09 61 bd 1d d5 06 bc
       0.017727928 -0.0104145715 -0.054940782 -0.008229521
000390 04 aa eb bc c1 75 7a 3c 56 2a 36 3d d2 00 58 bd
       -0.028767593 0.015286864 0.04447397 -0.052735157
0003a0 d8 53 b0 bd 67 9b 2c bc 0e d2 2a bd ae 5f b1 bc
       -0.08609742 -0.010535098 -0.04170423 -0.021652069
0003b0 33 2d 95 3c c3 1f 28 bd 2d 86 a7 bc 28 ec 7f bd
       0.01821003 -0.041045915 -0.020449722 -0.062481076
0003c0 8a d0 56 3d 5e d0 f3 3c e8 4c 8c 3d 3e a3 89 3b
       0.052444972 0.029762443 0.06850606 0.004200368
0003d0 cb 53 2a bd 54 26 90 bd f9 34 5f 3d d9 bf aa bd
       -0.041583817 -0.070385605 0.054493878 -0.08337373
0003e0 ba 8a 2f bb 23 5a 20 bd 4b 50 cf bc 41 47 18 bd
       -0.0026785568 -0.03914846 -0.025306841 -0.037177328
0003f0 f7 69 3c 3d 04 2f df 3c 3e 0c e3 bd 45 bc b9 bd
       0.045999493 0.027244098 -0.110863194 -0.09069113

sequential_4/conv2d_23/Conv2D f4 [64, 3, 3, 64]
000000 b6 9c 1f 3b 51 9c 8a bc e8 1d 11 3d 05 f1 46 3d
       0.0024354882 -0.01692024 0.03542891 0.048569698
000010 96 75 1f 3d 5e 75 d1 3c 55 7b 79 3c f3 1d a3 bd
       0.038930498 0.02556866 0.015227159 -0.07964697
000020 2b 1a 5f bd 67 43 a3 bd 7a 9e 47 bd 66 5e 8a 3d
       -0.054468315 -0.0797184 -0.04873512 0.06756286
000030 21 b2 59 3b fa 3c 3f bc 81 b1 58 3c ce cd 4d bd
       0.0033217745 -0.011672253 0.013225914 -0.0502451
000040 a5 30 07 3b c2 99 8f bb 60 42 47 3b 91 71 52 3d
       0.002062836 -0.004382343 0.0030404553 0.051377837
000050 72 1b 2d 3d e8 46 51 3d 31 97 69 bc ce e7 3f bd
       0.042262502 0.051093012 -0.014257238 -0.046851926
000060 b4 53 0d 3c 2c 29 40 bd 96 b8 4d bd 04 99 43 3d
       0.008625913 -0.046914265 -0.050224863 0.04775335
000070 45 d5 60 bd a4 d2 95 bd 8e fb 8a bd 3e ac e3 3c
       -0.05489089 -0.07315567 -0.067862615 0.027792092
000080 eb 7d 2e bd a5 94 45 3d 1a 9c 2b 3d 92 c5 0b bd
       -0.042600553 0.04823746 0.041896917 -0.034123965
000090 fb bb 94 3d 82 e8 92 bd 4b fe 48 bc b5 e2 ae 3d
       0.07262417 -0.071732536 -0.012267659 0.08539335
0000a0 b2 8a e8 bc f8 d6 63 3d cf 38 4d 3d 9d bf 0f bc
       -0.028386448 0.055624932 0.050103005 -0.0087737115
0000b0 5c 81 9b 3d ed 34 0c 3d ce 80 8e bc d0 69 69 3d
       0.07593033 0.03423016 -0.017395403 0.056985676
0000c0 64 1e 67 bd 0c e9 f5 bc 7a 69 24 3d 85 e3 72 3d
       -0.056425467 -0.030018352 0.040139653 0.05929901
0000d0 e3 96 cc bb 54 f6 a5 bc d2 db 16 bd 3f 67 98 3d
       -0.006243573 -0.02025906 -0.03683073 0.07441568
0000e0 23 a8 1d 3d ca 89 8e 3d 81 55 94 bd 89 05 bf 3d
       0.038490426 0.06959875 -0.07242871 0.093272276
0000f0 ac 13 7b bc c3 15 15 bd ed 22 40 bd 25 e3 a1 3b
       -0.015324514 -0.036397707 -0.046908308 0.004940408
000100 ab a1 6c 3d d1 4b 4b 3d d3 21 61 bd 98 9f 5f 3c
       0.057771366 0.04963285 -0.054963898 0.01364889
000110 7b e6 1f 3c 61 d3 c3 3c dd d2 0e 3c 1c bd 9d bb
       0.009759541 0.023904504 0.008717266 -0.0048138034
000120 73 a9 76 bd a0 99 55 3d cb 10 8a bd 67 b8 05 bc
       -0.060220193 0.05214846 -0.06741484 -0.008161641
000130 29 6a cf bc 9b 92 1d bd f0 de 19 bd 09 fc f2 bc
       -0.025319176 -0.038469892 -0.037566125 -0.029661195
000140 33 32 f9 bc e6 83 9a 3d fb 0f 83 3d 14 ef b9 3a
       -0.030419445 0.07544689 0.063995324 0.0014185631
000150 6a 70 0c 3c 8f 04 8d bc 86 4c 96 bc 6b c1 a5 bc
       0.0085717235 -0.017214088 -0.018347036 -0.02023383
000160 91 ad 4c bd 11 db c2 3b 42 0d a4 3d 9d e8 b1 3c
       -0.049970213 0.005946525 0.08010341 0.021717364
000170 95 5c fd 3c b7 79 dc 3c 88 e9 07 3d 0a 3c 62 bc
       0.030927936 0.026913507 0.033181697 -0.01380826
000180 e0 e2 80 bd ae 4b cf bc a3 38 57 bd 47 34 39 3d
       -0.06293273 -0.025304642 -0.052544247 0.04521587
000190 39 34 0b bd 6b d2 1a 3c 83 b6 a5 3d 71 26 51 3d
       -0.03398535 0.009449582 0.08091452 0.05106205
0001a0 ca fc 55 3d 00 f9 16 bd 20 a3 06 3d 2d 60 0a 3d
       0.05224303 -0.03685856 0.032870412 0.033783127
0001b0 58 86 94 3c fc 58 57 bd 02 65 a2 bc 77 d1 9c 3c
       0.018130466 -0.052575096 -0.019823555 0.01914285
0001c0 fe ad 3c bd a9 00 66 bd 55 24 25 3c cf 22 20 3c
       -0.04606437 -0.056152973 0.010079463 0.009773924
0001d0 9c b9 99 3d c7 ee de bd d4 fd 5e bd e9 cd a6 3d
       0.07506105 -0.10885387 -0.054441288 0.08144743
0001e0 f6 71 92 bd f9 40 a6 3d 46 de 8f bc 5b 80 1e bd
       -0.071506426 0.08117861 -0.017562043 -0.038696628
0001f0 a1 ac 4e bd ea ee 9f 3c ba 10 2a bd 4c 76 df bc
       -0.0504576 0.019523103 -0.041519858 -0.027278088
000200 cb ac 51 3c 71 89 64 bd f0 31 04 3d be 1e 48 3d
       0.012797545 -0.055795137 0.032274187 0.048857443
000210 cc 50 14 3c 47 22 26 3d d2 28 73 3d 0a 50 80 bc
       0.009052467 0.040560033 0.0593651 -0.015663166
000220 de 96 cd bc 87 a0 2c 3d dd 34 a6 bc 3f a8 74 bd
       -0.025096353 0.04214528 -0.020288879 -0.059730764
000230 df 20 04 bd 84 d1 9f 3d 37 bc d1 bb 67 88 43 3d
       -0.03225791 0.07803634 -0.006400611 0.047737505
000240 ac 28 5f bd 3e 39 4a bd ab 1c 1e bd 3a e5 d2 bc
       -0.054482147 -0.049370997 -0.03860156 -0.02574407
000250 bb 32 e3 3c 7f 54 1b 3d bb c6 33 3d 8c 3d 6a bd
       0.027734151 0.03792238 0.043890696 -0.057187602
000260 47 62 76 3d 25 e1 08 bd 60 d2 d6 bc c4 e0 1a bc
       0.06015232 -0.03341784 -0.026223361 -0.009453002
000270 c0 6d dd 3c 1f b9 4e bd de d1 10 bd 79 3f c2 3b
       0.027029872 -0.050469514 -0.035356395 0.0059279767
000280 1e 42 9a 3d 14 a2 ec bc 5a 4f 14 bd aa 90 14 bd
       0.07532142 -0.028885879 -0.036208488 -0.036270775
000290 91 08 98 3d ea d9 38 3d 8f 9f bb 3c 72 51 d5 bc
       0.07423509 0.045129694 0.022903232 -0.026039813
0002a0 89 85 4e 3c 3d a0 87 3d 43 b3 82 bc 89 9e ae 3c
       0.012605079 0.0662236 -0.01595462 0.02131583
0002b0 23 0c 19 bd c4 50 49 bd 1d db 5d bc 77 0b ec bb
       -0.03736509 -0.04914929 -0.01354101 -0.007203515
0002c0 ab bd 04 3c d4 29 c4 bb 65 1d 42 3c ec e3 e0 bc
       0.008101861 -0.0059864316 0.0118478285 -0.027452432
0002d0 2b 57 82 bc 40 a8 1c bd 8a 8d ae 3b d5 9b 95 ba
       -0.015910706 -0.038246393 0.0053269314 -0.0011414239
0002e0 46 f8 4e 3d f3 9d ad 3b 6f dd 4b 3d 5d 6b 73 3d
       0.05052974 0.00529837 0.049771722 0.05942856
0002f0 fe 18 4b bd 65 fa b4 bc 99 c6 3b bd f8 d8 33 bd
       -0.04958438 -0.022092054 -0.045843694 -0.04390809
000300 f6 92 93 3b eb e9 1e bd 98 be dc bc e2 df 51 bd
       0.004503603 -0.0387973 -0.026946351 -0.051238902
000310 67 fc 72 3d d6 7c 73 bc cc b0 3f bd 75 79 65 bd
       0.05932274 -0.014861306 -0.046799466 -0.056024034
000320 1e 3c 7d bd b5 fd a0 bd 2a b9 77 bd c9 1c 1e bd
       -0.06182491 -0.07860891 -0.06047932 -0.03860167
000330 27 b9 0d bc ff 5c a2 39 75 11 9f 3d 73 c5 82 bb
       -0.008650101 0.00030968335 0.077670015 -0.003990823
000340 b2 64 17 bc 74 a5 64 3d a0 99 fe bc e5 94 c2 bb
       -0.009240316 0.05582185 -0.031079113 -0.00593816
000350 70 be c2 bb 98 ea 4f 3d 5d 81 a1 3c 48 1f e4 3c
       -0.005943112 0.050760835 0.019715006 0.027846947
000360 84 0e 64 bd a4 68 06 bd 01 7a b2 3d f9 a7 a3 3d
       -0.055677906 -0.032814637 0.08714677 0.079910226
000370 95 96 3c 3c 34 be 21 3d 9a 62 7d 3d 95 91 73 3d
       0.011510511 0.039488032 0.061861612 0.05946501
000380 c4 e4 2d 3d da ac 06 bd aa 89 6e 3d d2 2f 91 bc
       0.042454496 -0.032879688 0.058236755 -0.017722998
000390 1e 8a 5e bc b8 db 59 bc 4d 46 96 3d b4 5a 78 3a
       -0.013582734 -0.013297014 0.073376276 0.0009473965
0003a0 e1 ac 07 3d 55 c6 66 3d 93 37 97 3d 35 7b 02 3d
       0.033123855 0.056341488 0.07383647 0.03185578
0003b0 35 fa 91 3d 27 5e 00 bd 76 c8 0c bd 38 8a 80 bd
       0.07127801 -0.03133979 -0.034370862 -0.06276363
0003c0 3f 12 06 3c e0 6d 2c bd de 60 6f bd ab 57 2b 3d
       0.008183061 -0.042096972 -0.05844199 0.041831654
0003d0 4f d9 3c bd 5d bf bf bd c9 f4 88 3d 00 58 8d 3d
       -0.04610568 -0.093626715 0.06687314 0.0690155
0003e0 cf 66 8d 3d 7e 70 77 3c 61 60 92 bd 05 65 ed 3c
       0.06904375 0.015102504 -0.07147289 0.028978834
0003f0 87 a9 0e 3a 2e c1 53 3c b6 c7 ec b9 99 57 a5 3c
       0.00054421317 0.012924476 -0.00045162224 0.020183371

sequential_4/conv2d_24/Conv2D f4 [64, 3, 3, 64]
000000 1b dc 04 bd 1d b3 8a bd 0e 3b 55 ba 2c 82 43 3d
       -0.03243647 -0.067724444 -0.0008134105 0.047731563
000010 89 45 28 bd ad 8a 1b bd 0f 27 89 bc 29 75 4c 3d
       -0.04108194 -0.03797405 -0.016742257 0.04991642
000020 41 ab c3 3c e2 8a 7f bd 34 39 30 3d 32 44 c8 bb
       0.023885371 -0.06238831 0.043023303 -0.006111645
000030 de ed 31 3d 56 b7 a0 bc 9a bc 5a 3c 16 80 28 3b
       0.04343974 -0.019618671 0.01335063 0.002571111
000040 d5 8c 10 3b c9 a5 3f bd 63 37 0b bb 2d 40 ac 3c
       0.0022056599 -0.046788964 -0.002124273 0.021026695
000050 0c fa 92 bc fa 65 5e 3d 17 58 77 bd 53 e3 dd bc
       -0.017941497 0.05429647 -0.060386743 -0.027085936
000060 b3 0e 58 3d 13 5f 5d 3d 8a 88 9c bd ea 7c f2 bc
       0.052748393 0.054045748 -0.0764323 -0.02960058
000070 e3 68 94 3c dc 97 fd 3b 1b b8 64 bd de 53 93 3d
       0.01811642 0.0077390503 -0.05583964 0.07193731
000080 9c 96 45 bd 27 05 93 bd e3 4e 6e bd b8 98 a3 3c
       -0.048239335 -0.07178717 -0.0581807 0.019970283
000090 09 f7 a2 bd 25 08 6c 3d f3 6e b1 bd b4 06 02 bd
       -0.079572745 0.057624955 -0.0866374 -0.031744674
0000a0 69 25 cf 3b 4d 03 e7 3c e4 b0 c2 bd 8e 38 1c bc
       0.0063215983 0.028199816 -0.095063955 -0.009534968
0000b0 d7 35 da bc bc 60 81 bc fa 39 25 3d e3 68 4d bd
       -0.026637001 -0.015793197 0.040338494 -0.050148856
0000c0 b9 41 7b 3c a7 fb 07 bd f3 3b 23 bd b8 3c 80 bd
       0.015335494 -0.03319898 -0.039852094 -0.06261581
0000d0 0d d6 31 3c 0d d6 15 3d e6 d1 8b bd 65 7f eb bc
       0.010854256 0.036581088 -0.06827144 -0.02874727
0000e0 e4 99 3e 3d a8 c3 46 bc a3 7e 29 bd f9 00 a5 3b
       0.04653348 -0.012131609 -0.041380536 0.0050355163
0000f0 46 9c 58 3d 8b ac 98 3d 82 8f 69 bc ef 29 3a 3c
       0.05288341 0.07454785 -0.014255406 0.011362537
000100 27 4a 3c bc ef a8 5e 3d 7b 24 49 3d 21 be 1d bd
       -0.011492289 0.054360326 0.049107056 -0.0385114
000110 2d b7 85 3c 7f 90 73 bd d0 b6 49 3d 8a f9 1a 3d
       0.016322697 -0.059463974 0.04924661 0.037835635
000120 44 8d 2a 3c cf 3b 85 bd f3 7c 6f 3d 9c de 34 bc
       0.010409657 -0.06505548 0.05846877 -0.011039402
000130 30 7a 82 3d ba e5 65 bd 16 59 a1 bd 13 39 4a 3c
       0.06370962 -0.056127287 -0.0787832 0.012342709
000140 33 f3 f6 bc 4d 95 c4 3c 01 39 69 bd 8c 1b 2c 3d
       -0.030145263 0.023996973 -0.05693913 0.04201846
000150 6d 94 94 3d 32 ee 32 3d da 12 a7 bd 01 3a 58 3d
       0.072548725 0.043684192 -0.081578925 0.05278969
000160 ae ac 63 3d a1 e0 3f 3d 9a 96 29 bd 43 64 57 3d
       0.055584602 0.046845082 -0.04140339 0.05258585
000170 66 d1 35 3b fd 8f 6d 3d 23 f1 47 bc 79 0e a9 3c
       0.002774322 0.057998646 -0.012203488 0.020636784
000180 a0 4e d2 bc 89 ea 86 bc 75 2f a7 bc 87 97 a2 bd
       -0.025672257 -0.016469257 -0.020408371 -0.07939058
000190 fe f5 b7 bd 41 9d 12 bc 89 f8 33 3d ec 63 84 bc
       -0.08982466 -0.008948625 0.043938193 -0.016160928
0001a0 01 62 83 bd 7f cc 4c 3d 4b 41 75 bd 92 26 b0 bd
       -0.06415177 0.04999971 -0.05987672 -0.08601107
0001b0 fc 0c b5 bd c1 4a b2 bd e0 8f 29 bd f6 a5 f6 b9
       -0.08840367 -0.087056644 -0.041396976 -0.00047044427
0001c0 0f 0a 47 3d ae 27 c7 bc f8 44 8b 3d 05 76 b7 bc
       0.048593577 -0.024310913 0.06800264 -0.022395143
0001d0 ce 2d 2a 3d 29 49 03 bc 60 6a 73 bd 6b 01 12 bd
       0.04154759 -0.008013048 -0.05942762 -0.035645884
0001e0 20 bd 4d 3d 37 4a 90 bd 6e cf a1 3c 32 ba 3b bc
       0.05022919 -0.07045405 0.01975223 -0.011457967
0001f0 7c cd 14 bd 70 47 04 bd 5a a4 24 bd 4d 22 90 3c
       -0.036328778 -0.03229469 -0.0401958 0.01759448
000200 a4 c5 d6 3c b5 d4 50 3d 09 3f 21 bd 95 45 53 bd
       0.02621729 0.050984103 -0.039366756 -0.05158003
000210 c1 93 34 bd 54 1e 5a bd 9b 6f a6 bd 88 08 80 bc
       -0.04408622 -0.05325158 -0.08126756 -0.015629068
000220 4e d8 9d 3c 8b 42 d2 3c fb da a6 3c b7 7f 7b 3d
       0.019268181 0.025666496 0.02036809 0.061401095
000230 9f 8c 56 3d af 0d 90 3d 99 a4 e1 3c ab 93 13 bd
       0.0523802 0.0703386 0.027544307 -0.0360295
000240 04 0f 6c bd 03 32 01 bd 8a 19 a9 bc d9 80 23 3d
       -0.057631508 -0.031541836 -0.02064206 0.0399178
000250 b4 4e 5d 3d fc 5e 7b bc 18 c4 10 bc 30 7e 25 bd
       0.054030135 -0.01534247 -0.008835815 -0.040403545
000260 9f be d3 3c 5a a7 14 bd b3 3f aa bd b9 7f ea bc
       0.025847731 -0.03629241 -0.08312931 -0.028625356
000270 78 03 85 bd 4f 75 5d 3d a1 40 3a 3d 37 cf 0a bd
       -0.06494802 0.054066952 0.04547179 -0.03388902
000280 b4 a9 36 3d 36 9d 56 bc c8 3c 2a 3d 36 8c 2a 3c
       0.044595435 -0.013099005 0.04156187 0.010409405
000290 fc dd 5b 3d 2d 35 da bb 2a e3 32 bd 9e 55 83 bd
       0.053678498 -0.006659171 -0.04367367 -0.064128146
0002a0 a8 1e 32 3d c8 b2 70 bd ef 45 bc 3c cf c9 79 3c
       0.043486267 -0.05876425 0.022982566 0.015245869
0002b0 a6 5a 82 bd 22 aa b3 3d 0a f4 13 bd c2 8f 6a 3d
       -0.06364946 0.08772685 -0.036121406 0.057266004
0002c0 be 90 a0 bd f3 ba 54 3d d3 5c cf 3c e9 ab 53 3d
       -0.078401074 0.0519361 0.025312817 0.05167762
0002d0 53 57 a7 3c 9e 68 6b 3d 57 11 36 bd bf 82 1e bd
       0.020427382 0.057472818 -0.04445013 -0.038698908
0002e0 3a e5 7e 3d 0a d1 26 3d 4e 8b c1 3c 85 fc b3 bd
       0.062230326 0.0407267 0.023625996 -0.08788399
0002f0 e3 fd 76 3d 14 e4 8e 3c 8a 9e 86 bd 50 5c 5e 3d
       0.06030072 0.01744274 -0.06573208 0.054287255
000300 44 8a ae 3b 0d 09 26 bd 1e 9f 97 3c ee 71 29 3c
       0.005326541 -0.040535975 0.01850849 0.010342104
000310 4b c8 43 bd d5 9f fe 3c d4 8b b1 bc 02 18 82 bd
       -0.047798436 0.031082073 -0.02167312 -0.063522354
000320 6b 43 a2 bc 42 fd 26 bd 8f 97 81 bc 56 01 09 bc
       -0.019807538 -0.04076887 -0.01581934 -0.008362135
000330 d2 ed 93 3c 77 f6 8b bd 03 e5 e7 ba 05 cb 5f bd
       0.018057737 -0.06834119 -0.0017692152 -0.054636974
000340 f9 fd 03 3d 3b b7 2c bd ad 7a 2d 3b d7 25 1b 3d
       0.03222463 -0.04216693 0.0026470826 0.037877884
000350 b3 5c 0d bc f4 68 55 bd e7 5e 37 3d 79 ee 8d bc
       -0.008628058 -0.052102044 0.04476824 -0.017325627
000360 76 76 5f 3d df 1d 84 3d c0 3c 95 bd b8 69 4f 3b
       0.054556333 0.0645101 -0.07286978 0.0031648707
000370 20 9c 17 3d e9 c7 fd bb b3 b6 91 3d 41 ae ab 3c
       0.037014127 -0.0077447784 0.07114925 0.020957114
000380 17 0a 91 3c 90 ea a5 bc aa 97 0f 3d 87 43 3b bd
       0.017705007 -0.02025345 0.035056747 -0.045718696
000390 d0 4a 53 3c 32 27 d8 3b aa 8c 15 3d 1a 4c 56 bd
       0.012896255 0.0065964693 0.0365111 -0.05231867
0003a0 f8 4c eb 3c 9c ab 60 3d 9e e3 77 3c 2c 15 cc 3b
       0.028723225 0.05485116 0.015129952 0.00622811
0003b0 fa 84 70 3d 61 d2 98 bc b4 e0 84 3d 58 43 46 3d
       0.058720566 -0.018655004 0.06488171 0.048404068
0003c0 52 b3 b3 3b 99 c0 f6 bc 93 ba 52 3d f4 da c0 bb
       0.005484023 -0.030121135 0.051447462 -0.0058854762
0003d0 e0 5b 82 bd 73 fd 8c 3d 85 aa 85 3d e1 ee 89 bd
       -0.0636518 0.06884279 0.06526665 -0.06735016
0003e0 f3 72 87 3c bc d1 9a 3c d4 e3 76 3d 4a cc 70 bc
       0.016534304 0.018898837 0.060275868 -0.014697144
0003f0 f2 a1 cb 3c e9 49 38 bd 2f bd c6 3d f7 81 05 bd
       0.024857495 -0.04499236 0.09704053 -0.032594647

sequential_4/dense_9/BiasAdd/ReadVariableOp f4 [5]
000000 e8 0c 07 3d db 73 48 bd 5a 41 a0 3b 24 a6 be 3c
       0.032971293 -0.048938613 0.004890603 0.023272581
000010 b1 d4 1e bd
       -0.038777057

sequential_4/dense_8/BiasAdd/ReadVariableOp f4 [128]
000000 30 c1 83 bc 3e 2c bb 3c ea a6 31 bc a9 1f ad 3c
       -0.01608333 0.022848245 -0.010843018 0.02113326
000010 f1 5a e2 3b 54 67 bb bc 79 42 9d 3c 71 ff 87 3d
       0.0069078137 -0.02287642 0.019196736 0.066405185
000020 68 b3 af bc ec 7a 29 3a 6e 71 13 3d 3a e1 dc bb
       -0.021447852 0.0006465155 0.035996847 -0.0067407163
000030 a5 4e c3 3c 89 82 40 3d ef ba d8 3c db 95 4c 3d
       0.023841212 0.046999488 0.026456324 0.0499476
000040 3e 8b 8b bc 47 ec 1f 3d f4 b9 31 bc 8b 6c 91 3b
       -0.01703417 0.03904369 -0.010847557 0.004437988
000050 f3 f0 4d bc 46 4a 8e bc 76 a2 11 3c d9 b5 0a 3d
       -0.012569654 -0.0173694 0.008888831 0.03386483
000060 72 73 66 bc b1 c6 c0 bb 39 60 b5 bc 48 67 09 3d
       -0.01406561 -0.005883061 -0.02214061 0.033545762
000070 8f af 07 bb 1e a4 37 bc 3b ed 8e 3d 8d c5 fb 3c
       -0.0020704006 -0.011208562 0.06978842 0.030733848
000080 1e da ad bb 5b 74 a0 3b 6b 74 d0 bb 48 35 de 3c
       -0.0053055426 0.004896683 -0.0063615344 0.027125016
000090 bd 73 01 3d 08 54 ce bb 23 86 c8 3b 16 55 6c 3d
       0.031604517 -0.0062966384 0.006119506 0.05769833
0000a0 1a 0e 31 3c 0a eb f8 3b 0e a2 40 bd 56 ec 0b bc
       0.010806585 0.007596378 -0.047029547 -0.008540234
0000b0 84 be 1a bb 90 f5 24 bd 7a 22 42 bc 38 56 ac bc
       -0.0023612091 -0.04027325 -0.01184904 -0.021037206
0000c0 4e d2 9f 3c f8 a7 1e 3c c5 01 27 3d a0 2b d4 bc
       0.01950946 0.009683602 0.040773172 -0.025899708
0000d0 ca 80 ec 3c d9 8e 8e 3d ba d4 01 bc 92 42 1d 3d
       0.028870005 0.0696084 -0.007924253 0.038393565
0000e0 d2 1e db bb 44 e6 46 bb 2a dd dc 3c f6 1c 46 3d
       -0.0066870237 -0.0030349651 0.026960928 0.048367463
0000f0 b4 83 a4 bc f1 d9 f8 3c a6 62 55 3d 3c 1a 3f bd
       -0.020082332 0.03037736 0.05209603 -0.04665588
000100 21 70 78 bc 5e 49 75 bc 35 64 fd 3c cb 98 4e bc
       -0.015163452 -0.014971105 0.030931571 -0.012609671
000110 de e2 8a 3c 9f 93 42 bc 9c 18 0e bb 48 bc d7 bc
       0.016953882 -0.011876016 -0.0021682149 -0.026334897
000120 f2 f8 65 3c 4a 9f be 3b c7 58 3c 3d b4 26 7f 3d
       0.014036404 0.0058173286 0.045983102 0.06229277
000130 04 9f 66 3d e2 70 4e bc 14 8b 00 bc 60 ab 23 3b
       0.056303993 -0.012600156 -0.007845659 0.0024973974
000140 df da d2 bb d0 11 15 3a db 74 98 bc 4a b8 27 3d
       -0.006434783 0.0005686553 -0.018610409 0.040947236
000150 71 18 24 bd f3 32 f5 3c 4e 22 1b bc d3 a0 a4 bc
       -0.04006237 0.029931521 -0.009468628 -0.020096218
000160 76 23 21 3c 48 28 81 3d ab 40 51 bc 2d ca 35 3d
       0.009835115 0.06306511 -0.012771766 0.044382263
000170 f0 3c 0e bc 54 3e 84 3b 9a 5e 40 bc 5c 15 8a bb
       -0.008681521 0.0040357504 -0.011741305 -0.004213972
000180 f9 d1 f7 bc 78 a4 76 bc 4b 72 ee 3c a9 89 80 bc
       -0.03025149 -0.015053861 0.029107234 -0.015690641
000190 11 83 69 bc 6e 32 7f bc 8b 14 e8 3c a7 38 80 bc
       -0.01425244 -0.015575988 0.028330108 -0.015652014
0001a0 52 bb 7c 3c 3d 42 c7 bc 52 5e 85 bc bf 6c d3 bb
       0.01542552 -0.024323577 -0.016280327 -0.0064521725
0001b0 96 2c ee bc 89 bd 0e bc 30 93 1d 3c 78 6a e2 bc
       -0.029073995 -0.008712181 0.009617612 -0.027638659
0001c0 f4 aa 39 bc f5 08 00 3d 76 1c 38 bc 86 8c 40 b9
       -0.011332262 0.031258542 -0.011237254 -0.00018362896
0001d0 41 1b 5b 3d af 1b b7 bc 06 ed ca ba d6 6a 7b 3b
       0.05349279 -0.022352068 -0.0015482015 0.003836324
0001e0 69 2e 84 3c 3a b3 34 bc b3 43 16 3d 4a a2 30 bc
       0.016135411 -0.011029059 0.036685657 -0.01078088
0001f0 9e 64 d2 bc 4c 3c 51 3c 3a 7b a0 bc b4 9f 22 bd
       -0.025682744 0.012770724 -0.019590009 -0.039703086
